Thread/w_1_8_Xavier_init.npz (npz, 596 bytes, 2 tensors)

weights f8 [1, 8]
00000000: 0a71 0b62 b060 e4bf cf16 ff83 af1e e9bf
00000010: 8e29 4359 0e24 e4bf 9abc 7b85 e507 e5bf
00000020: b414 d095 e3d2 d03f 7c83 af76 998d cabf
00000030: dd8c 20de a520 e8bf ca40 98bd 5c00 debf
-0.6368028559623167 -0.7849958017402175 -0.6294013732343033 -0.6572139365288365 0.2628716433540135 -0.20744627280421557 -0.7539853418751609 -0.46877211108313743

bias f8 [1, 8]
00000000: 0000 0000 0000 0000 0000 0000 0000 0000
00000010: 0000 0000 0000 0000 0000 0000 0000 0000
00000020: 0000 0000 0000 0000 0000 0000 0000 0000
00000030: 0000 0000 0000 0000 0000 0000 0000 0000
0.0 0.0 0.0 0.0 0.0 0.0 0.0 0.0
